…
, 44, 47, 56, 110, 1199)\n","depth = 20\n","\n","# ResNetを構築\n","model = ResNet_ABN(depth)\n","\n","if use_cuda:\n","    model.cuda()\n","\n","optimizer = torch.optim.SGD(model.parameters(), lr=0.01, momentum=0.9)\n","\n","# モデルの情報を表示\n","torchsummary.summary(model, (3, 32, 32))"],"execution_count":23,"outputs":[{"output_type":"stream","name":"stdout","text":["----------------------------------------------------------------\n","        Layer (type)               Output Shape         Param #\n","================================================================\n","            Conv2d-1           [-1, 16, 32, 32]             432\n","       BatchNorm2d-2           [-1, 16, 32, 32]              32\n","              ReLU-3           [-1, 16, 32, 32]               0\n","            Conv2d-4           [-1, 16, 32, 32]           2,304\n","       BatchNorm2d-5           [-1, 16, 32, 32]              32\n","              ReLU-6           [-1, 16, 32, 32]               0\n","            Conv2d-7           [-1, 16, 32, 32]           2,304\n","       BatchNorm2d-8           [-1, 16, 32, 32]              32\n","              ReLU-9           [-1, 16, 32, 32]               0\n","       BasicBlock-10           [-1, 16, 32, 32]               0\n","           Conv2d-11           [-1, 16, 32, 32]           2,304\n","      BatchNorm2d-12           [-1, 16, 32, 32]              32\n","             ReLU-13           [-1, 16, 32, 32]               0\n","           Conv2d-14           [-1, 16, 32, 32]           2,304\n","      BatchNorm2d-15           [-1, 16, 32, 32]              32\n","             ReLU-16           [-1, 16, 32, 32]               0\n","       BasicBlock-17           [-1, 16, 32, 32]               0\n","           Conv2d-18           [-1, 16, 32, 32]           2,304\n","      BatchNorm2d-19           [-1, 16, 32, 32]              32\n","             ReLU-20           [-1, 16, 32, 32]               0\n","           Conv2d-21           [-1, 16, 32, 32]           2,304\n","      BatchNorm2d-22           [-1, 16, 32, 32]              32\n","             ReLU-23           [-1, 16, 32, 32]               0\n","       BasicBlock-24           [-1, 16, 32, 32]               0\n","           Conv2d-25           [-1, 32, 16, 16]           4,608\n","      BatchNorm2d-26           [-1, 32, 16, 16]              64\n","             ReLU-27           [-1, 32, 16, 16]               0\n","           Conv2d-28           [-1, 32, 16, 16]           9,216\n","      BatchNorm2d-29           [-1, 32, 16, 16]              64\n","           Conv2d-30           [-1, 32, 16, 16]             512\n","      BatchNorm2d-31           [-1, 32, 16, 16]              64\n","             ReLU-32           [-1, 32, 16, 16]               0\n","       BasicBlock-33           [-1, 32, 16, 16]               0\n","           Conv2d-34           [-1, 32, 16, 16]           9,216\n","      BatchNorm2d-35           [-1, 32, 16, 16]              64\n","             ReLU-36           [-1, 32, 16, 16]               0\n","           Conv2d-37           [-1, 32, 16, 16]           9,216\n","      BatchNorm2d-38           [-1, 32, 16, 16]              64\n","             ReLU-39           [-1, 32, 16, 16]               0\n","       BasicBlock-40           [-1, 32, 16, 16]               0\n","           Conv2d-41           [-1, 32, 16, 16]           9,216\n","      BatchNorm2d-42           [-1, 32, 16, 16]              64\n","             ReLU-43           [-1, 32, 16, 16]               0\n","           Conv2d-44           [-1, 32, 16, 16]           9,216\n","      BatchNorm2d-45           [-1, 32, 16, 16]              64\n","             ReLU-46           [-1, 32, 16, 16]               0\n","       BasicBlock-47           [-1, 32, 16, 16]               0\n","           Conv2d-48           [-1, 64, 16, 16]          18,432\n","      BatchNorm2d-49           [-1, 64, 16, 16]             128\n","             ReLU-50           [-1, 64, 16, 16]               0\n","           Conv2d-51           [-1, 64, 16, 16]          36,864\n","      BatchNorm2d-52           [-1, 64, 16, 16]             128\n","           Conv2d-53           [-1, 64, 16, 16]           2,048\n","      BatchNorm2d-54           [-1, 64, 16, 16]             128\n","             ReLU-55           [-1, 64, 16, 16]               0\n","       BasicBlock-56           [-1, 64, 16, 16]               0\n","           Conv2d-57           [-1, 64, 16, 16]          36,864\n","      BatchNorm2d-58           [-1, 64, 16, 16]             128\n","             ReLU-59           [-1, 64, 16, 16]               0\n","           Conv2d-60           [-1, 64, 16, 16]          36,864\n","      BatchNorm2d-61           [-1, 64, 16, 16]             128\n","             ReLU-62           [-1, 64, 16, 16]               0\n","       BasicBlock-63           [-1, 64, 16, 16]               0\n","           Conv2d-64           [-1, 64, 16, 16]          36,864\n","      BatchNorm2d-65           [-1, 64, 16, 16]             128\n","             ReLU-66           [-1, 64, 16, 16]               0\n","           Conv2d-67           [-1, 64, 16, 16]          36,864\n","      BatchNorm2d-68           [-1, 64, 16, 16]             128\n","             ReLU-69           [-1, 64, 16, 16]               0\n","       BasicBlock-70           [-1, 64, 16, 16]               0\n","      BatchNorm2d-71           [-1, 64, 16, 16]             128\n","           Conv2d-72           [-1, 10, 16, 16]             640\n","      BatchNorm2d-73           [-1, 10, 16, 16]              20\n","             ReLU-74           [-1, 10, 16, 16]               0\n","           Conv2d-75            [-1, 1, 16, 16]              90\n","      BatchNorm2d-76            [-1, 1, 16, 16]               2\n","          Sigmoid-77            [-1, 1, 16, 16]               0\n","           Conv2d-78           [-1, 10, 16, 16]             100\n","        AvgPool2d-79             [-1, 10, 1, 1]               0\n","           Conv2d-80             [-1, 64, 8, 8]          18,432\n","      BatchNorm2d-81             [-1, 64, 8, 8]             128\n","             ReLU-82             [-1, 64, 8, 8]               0\n","           Conv2d-83             [-1, 64, 8, 8]          36,864\n","      BatchNorm2d-84             [-1, 64, 8, 8]             128\n","           Conv2d-85             [-1, 64, 8, 8]           2,048\n","      BatchNorm2d-86             [-1, 64, 8, 8]             128\n","             ReLU-87             [-1, 64, 8, 8]               0\n","       BasicBlock-88             [-1, 64, 8, 8]               0\n","           Conv2d-89             [-1, 64, 8, 8]          36,864\n","      BatchNorm2d-90             [-1, 64, 8, 8]             128\n","             ReLU-91             [-1, 64, 8, 8]               0\n","           Conv2d-92             [-1, 64, 8, 8]          36,864\n","      BatchNorm2d-93             [-1, 64, 8, 8]             128\n","             ReLU-94             [-1, 64, 8, 8]               0\n","       BasicBlock-95             [-1, 64, 8, 8]               0\n","           Conv2d-96             [-1, 64, 8, 8]          36,864\n","      BatchNorm2d-97             [-1, 64, 8, 8]             128\n","             ReLU-98             [-1, 64, 8, 8]               0\n","           Conv2d-99             [-1, 64, 8, 8]          36,864\n","     BatchNorm2d-100             [-1, 64, 8, 8]             128\n","            ReLU-101             [-1, 64, 8, 8]               0\n","      BasicBlock-102             [-1, 64, 8, 8]               0\n","       AvgPool2d-103             [-1, 64, 1, 1]               0\n","          Linear-104                   [-1, 10]             650\n","================================================================\n","Total params: 479,150\n","Trainable params: 479,150\n","Non-trainable params: 0\n","----------------------------------------------------------------\n","Input size (MB): 0.01\n","Forward/backward pass size (MB): 8.24\n","Params size (MB): 1.83\n","Estimated Total Size (MB): 10.08\n","-----------------------------------------
…
